data.pth (torch, 7985 bytes, 6 tensors)

l1.weight f4 [8, 96]
-0.3020488 -0.3426465 0.09522623 0.295073 -0.43653592 0.4657449 0.32567587 0.5294677
-0.44066468 0.64467597 0.8910625 -0.07305771 1.0014272 0.81549215 0.430102 -0.19800326
0.45907187 -0.7655983 0.17298558 0.49892625 0.14793004 0.41609558 -0.16928475 0.27165538
0.04368744 1.0729917 0.9935048 0.98822075 -0.4311125 0.9086187 0.91630137 0.6786098
-0.12555909 0.43354008 0.34478444 -0.41542333 0.3263339 0.8011556 -0.25961554 0.6049492
-0.12624182 0.6524366 0.015849669 -0.023674153 -0.6002143 -0.18543781 -0.27863696 0.43076345
-0.36744484 -0.09665989 0.01549825 -0.9318167 0.19996609 0.018024601 -0.0812799 0.028414214
0.13961452 -0.20688897 -0.3043896 -0.33133215 -0.77285707 -0.8525744 0.250457 0.54349685
0.45805833 -0.8206885 0.76348996 0.032180488 0.38788775 1.1059842 -0.013567773 -0.042822175
-1.0098852 0.29246718 -0.13366883 0.7053935 -0.051943734 -0.81487495 -0.073426574 0.5412857
-0.20222405 -0.15365762 -0.14452972 0.38607386 0.6617754 -0.3082842 0.22397898 0.2187552
0.25765726 0.8937376 0.30453938 0.941811 0.371505 0.6465776 0.09307884 -0.433939
-0.24596749 0.36991122 -0.55768085 0.018730598 -0.7703943 -0.1940754 0.4430175 -0.3429846
-1.2159618 -0.5135573 -0.09633896 0.41505083 1.2230245 -0.12512906 0.035788324 0.2953569
-0.19580285 1.1101589 -0.006809817 -0.19357903 0.4405327 -0.44828063 0.57651263 0.15054424
0.49300015 -0.52904546 1.1699805 -0.72256494 -0.3140909 -0.72350067 -0.7224654 -0.81045973
0.34853715 0.10196415 0.050007965 0.6543645 -0.06644048 0.5920624 0.17260236 0.7052131
0.6211054 -0.64408785 -0.3147984 0.23337828 1.0486851 -0.43425927 0.39017528 -0.1943886
0.42614722 0.07906385 -0.11254727 1.0111037 -0.3810183 -0.9863251 0.1507363 0.22413029
0.6489799 0.10297697 0.5346327 0.61132073 0.40181246 -0.27512026 -0.38730755 0.7386351
-0.01699756 0.5403565 0.93110245 -0.56227666 -0.550181 -0.6030026 0.053065423 0.67271274
0.13317795 -0.44898933 0.60284096 -0.6467388 0.4113335 -1.0210357 -0.3409757 -0.48123968
0.1709232 0.17596516 0.27683258 0.5259048 -0.19381112 0.5591306 -0.41768587 -0.49631584
-0.2327492 -0.27800137 -0.053884193 0.9083807 -0.07333367 -0.25196207 0.3306582 0.0477498
-0.044335876 0.6741705 0.4840407 -0.1765218 0.9592667 -0.16052715 0.16826168 -0.2158941
-0.7537221 -0.28439322 0.7335913 0.20015815 -0.02249114 -0.16929543 0.023159927 -0.4810222
-0.16812621 1.0300775 0.31547874 -0.1598384 -0.14136134 -0.39829576 0.74007314 -0.29769716
0.24102499 -0.45917568 -0.06659342 -0.62034553 0.43796736 -0.61915094 -0.6194539 -0.43996543
0.031182319 -0.3081492 -0.30081138 0.9893516 0.119667776 1.2918968 0.15674011 0.06958825
0.95562464 0.09263238 -0.4396026 0.55842054 1.3898988 -0.08527406 -0.1758054 -0.19776745
-0.048573513 0.021978911 -0.056803536 0.62302786 0.4467707 0.15910299 -0.024740867 -0.17379618
-0.81681997 -0.470327 -0.13115257 -0.4284042 -1.0088068 0.44802693 0.31084135 -0.030622767
00000000: 24a6 9abe 5d6f afbe f805 c33d cf13 973e
00000010: a381 dfbe 1e76 ee3e fdbe a63e 328b 073f
00000020: cd9e e1be 7c09 253f ac1c 643f 489f 95bd
00000030: c42e 803f 18c4 503f 5436 dc3e 5ec1 4abe
00000040: 780b eb3e 40fe 43bf 2223 313e 4373 ff3e
00000050: f97a 173e 7b0a d53e fb58 2dbe 6a16 8b3e
00000060: 9af1 323d cb57 893f 5556 7e3f 09fc 7c3f
00000070: c7ba dcbe 3c9b 683f ba92 6a3f 5fb9 2d3f
00000080: 9092 00be f7f8 dd3e 9687 b03e 5eb2 d4be
00000090: 3d15 a73e 8918 4d3f 54ec 84be f3dd 1a3f
000000a0: 8945 01be 1606 273f 2ad7 813c 4cf0 c1bc
000000b0: a5a7 19bf 69e3 3dbe 81a9 8ebe 078d dc3e
000000c0: bb21 bcbe 9ff5 c5bd 5fec 7d3c 8a8b 6ebf
000000d0: e9c3 4c3e 54a8 933c 1476 a6bd edc4 e83c
000000e0: 1cf7 0e3e b4da 53be f4d8 9bbe 5ea4 a9be
000000f0: f6d9 45bf 5142 5abf e63b 803e 9c22 0b3f
00000100: 9f86 ea3e a418 52bf 1474 433f b0cf 033d
00000110: 3999 c63e e490 8d3f 5d4b 5ebc 4e66 2fbd
00000120: eb43 81bf 42be 953e 7be0 08be ab94 343f
00000130: f4c2 54bd a59b 50bf ac60 96bd b391 0a3f
00000140: d213 4fbe 6c58 1dbe 99ff 13be 79ab c53e
00000150: 1d6a 293f 6dd7 9dbe bf5a 653e 5d01 603e
00000160: a7eb 833e fdcb 643f 96ec 9b3e 871a 713f
00000170: e735 be3e 1c86 253f 1ea0 be3d 412d debe
00000180: e7de 7bbe 0165 bd3e 2cc4 0ebf e970 993c
00000190: 9038 45bf b4bb 46be 31d3 e23e ad9b afbe
000001a0: a3a4 9bbf 7e78 03bf 5c4d c5bd 8b81 d43e
000001b0: 118c 9c3f d521 00be c796 123d 0539 973e
000001c0: 8b80 48be b019 8e3f e324 dfbb 9539 46be
000001d0: 818d e13e 0a85 e5be 5596 133f 4528 1a3e
000001e0: 846a fc3e 866f 07bf ecc1 953f 04fa 38bf
000001f0: 86d0 a0be 5737 39bf 7ef3 38bf 4a7a 4fbf
00000200: 7673 b23e 95d2 d03d 27d5 4c3d 6f84 273f
00000210: f211 88bd 6791 173f acbe 303e d988 343f
00000220: c300 1f3f f1e2 24bf 422d a1be b7fa 6e3e
00000230: 503b 863f 3b57 debe 0ec5 c73e ce0d 47be
00000240: f82f da3e 3aec a13d 2f7f e6bd d96b 813f
00000250: d514 c3be cd7f 7cbf 9e5a 1a3e 6982 653e
00000260: 8c23 263f 97e5 d23d b0dd 083f 847f 1c3f
00000270: 5dba cd3e 90dc 8cbe 2d4d c6be 3117 3d3f
00000280: 783e 8bbc ce54 0a3f bb5c 6e3f 5df1 0fbf
00000290: a9d8 0cbf 615e 1abf 215b 593d e736 2c3f
000002a0: cd5f 083e eee1 e5be c953 1a3f ad90 25bf
000002b0: 4e9a d23e 4cb1 82bf 5e94 aebe 0c65 f6be
000002c0: 7e06 2f3e 3630 343e 00bd 8d3e b2a1 063f
000002d0: 6c76 46be 2f23 0f3f ecda d5be 1c1d febe
000002e0: ce55 6ebe 3256 8ebe acb5 5cbd a38b 683f
000002f0: f72f 96bd 2c01 81be 084c a93e 4b95 433d
00000300: 8999 35bd 7096 2c3f 2fd4 f73e 21c2 34be
00000310: 8192 753f 3b61 24be ca4c 2c3e 5813 5dbe
00000320: eef3 40bf fd9b 91be a4cc 3b3f 42f6 4c3e
00000330: 573f b8bc c85b 2dbe e3b9 bd3c 8b48 f6be
00000340: 4729 2cbe 94d9 833f 6e86 a13e adac 23be
00000350: 07c1 10be 6ced cbbe 6f75 3d3f c36b 98be
00000360: 41cf 763e 1319 ebbe 2262 88bd f7ce 1ebf
00000370: 423d e03e ad80 1ebf 8894 1ebf 2643 e1be
00000380: 1072 ff3c bbc5 9dbe f303 9abe 2546 7d3f
00000390: 6114 f53d e05c a53f 7b80 203e 4984 8e3d
000003a0: d1a3 743f 0cb6 bd3d 9813 e1be a6f4 0e3f
000003b0: 34e8 b13f 2ba4 aebd 5506 34be 8d83 4abe
000003c0: 05f5 46bd 1e0d b43c d3aa 68bd c17e 1f3f
000003d0: 21bf e43e e5eb 223e 5cad cabc a0f7 31be
000003e0: 1d1b 51bf b3ce f0be dc4c 06be cc57 dbbe
000003f0: 9520 81bf c963 e53e 9926 9f3e 99dc fabc

l1.bias f4 [8]
0.92950356 0.71969384 0.6177526 0.92232513 0.59202796 0.74603605 0.5044098 0.860522
00000000: f2f3 6d3f db3d 383f 0925 1e3f 801d 6c3f
00000010: 258f 173f 38fc 3e3f 0021 013f 2b4b 5c3f

l2.weight f4 [8, 8]
0.81808716 0.0822693 -0.6992939 1.1710575 0.5895174 0.2404461 -0.554654 1.7106717
-0.043030813 0.891397 -0.7413243 0.29543334 -1.1556431 0.015162173 1.0893446 0.75741476
0.24769144 1.5145268 0.20332204 0.982561 -0.96587664 -0.17211442 1.1309518 -0.82095695
-0.0073549887 -0.31331664 1.0086268 -0.46145993 2.0169683 1.6111708 -0.48366854 1.9913591
-0.34034678 -0.05409522 -0.32821554 -0.3521034 0.1678185 -0.31243548 0.081558675 -0.25061327
1.9256154 -0.9197144 0.03500146 1.4895086 0.11823722 0.37620857 0.09609268 -0.5089007
-0.2688001 0.9306254 1.3505002 -0.3346319 0.38960424 0.9338116 1.2894871 -0.43599102
0.65956193 1.3463182 1.5707334 1.4720527 -0.14729847 -0.08630416 -0.9376099 0.17707066
00000000: 296e 513f cf7c a83d ed04 33bf 36e5 953f
00000010: 9dea 163f 8137 763e cefd 0dbf 4af7 da3f
00000020: 1441 30bd 9832 643f 6ec7 3dbf 0a43 973e
00000030: 1dec 93bf c36a 783c a56f 8b3f efe5 413f
00000040: d3a2 7d3e 04dc c13f a733 503e 1e89 7b3f
00000050: b143 77bf c33e 30be 07c3 903f 3c2a 52bf
00000060: 1e02 f1bb 0a6b a0be af1a 813f 7a44 ecbe
00000070: 0216 0140 d83a ce3f 67a3 f7be dbe4 fe3f
00000080: ef41 aebe f392 5dbd de0b a8be e646 b4be
00000090: 9dd8 2b3e 8bf7 9fbe 3c08 a73d 6250 80be
000000a0: 917a f63f 6772 6bbf b15d 0f3d 38a8 be3f
000000b0: 5b26 f23d 699e c03e 3dcc c43d 5147 02bf
000000c0: 2ba0 89be 773d 6e3f 31dd ac3f df54 abbe
000000d0: 357a c73e 470e 6f3f ea0d a53f 373a dfbe
000000e0: 0dd9 283f 2854 ac3f cb0d c93f 396c bc3f
000000f0: 69d5 16be 3cc0 b0bd 3407 70bf 0352 353e

l2.bias f4 [8]
0.7462085 -0.3082541 0.4098708 0.6243335 -0.30260408 0.6098518 -0.1113541 0.59988904
00000000: 8507 3f3f 7bd3 9dbe 96da d13e 52d4 1f3f
00000010: ecee 9abe 3f1f 1c3f 9e0d e4bd 5492 193f

l3.weight f4 [13, 8]
0.3855694 -1.2698277 -0.2886287 0.2460801 0.24669607 0.28272277 -0.5343708 0.7871551
-1.3009866 -0.53837633 -0.3668791 0.6006349 -0.25786456 -1.8103743 0.50070876 0.31573352
0.26915312 0.20881677 0.8110279 -2.2399864 -0.0087041985 0.3004416 -1.1467642 0.6588251
0.86258066 -2.2371204 -2.7364419 0.18179369 0.041316375 1.216104 -2.4739482 0.38367054
-1.8682826 -0.45618412 0.21028487 -0.6961984 0.18877514 -0.7722198 0.26696748 0.8248737
0.34171575 0.7005126 0.16936941 -0.43851006 -0.14023583 -0.045207758 -0.51996106 -0.12442341
-0.19533634 0.95506597 0.8015168 -2.2048419 -0.22958784 -1.6609573 -0.259004 0.21244745
0.33538944 0.22840881 -1.7939755 0.53145444 -0.28888166 0.55542904 -0.021925919 -1.7258738
-2.262179 0.16744028 0.33016118 -0.41031158 -0.19342497 -1.7106632 0.6388682 -0.67519265
-0.061771486 -0.92964613 -2.4358513 0.7957168 -0.22644593 -1.340396 0.3918838 0.42321002
0.63029337 -1.7965826 -0.079280406 -1.6340393 0.1253902 1.3647801 -2.276347 0.590761
1.012332 -0.8125948 -1.3166431 0.95760095 -0.12726928 -1.1096743 -1.658447 -0.8239625
-0.7561209 -0.39441347 -0.23053809 -0.060443792 -0.34719422 0.5371576 0.30006835 -0.3054965
00000000: 5a69 c53e b789 a2bf 24c7 93be 6cfc 7b3e
00000010: e59d 7c3e 0ac1 903e 86cc 08bf ff82 493f
00000020: bb86 a6bf 08d3 09bf 94d7 bbbe 35c3 193f
00000030: d306 84be 58ba e7bf 732e 003f d3a7 a13e
00000040: 70ce 893e 10d4 553e 869f 4f3f f05b 0fc0
00000050: 0e9c 0ebc 7bd3 993e 2bc9 92bf c3a8 283f
00000060: 16d2 5c3f fb2c 0fc0 dd21 2fc0 2028 3a3e
00000070: 5c3b 293d 4ca9 9b3f 2b55 1ec0 7770 c43e
00000080: e223 efbf f790 e9be eb54 573e 0f3a 32bf
00000090: 454e 413e 32b0 45bf f6af 883e ec2a 533f
000000a0: 5ef5 ae3e cb54 333f 2d6f 2d3e 6484 e0be
000000b0: fb99 0fbe c52b 39bd 2b1c 05bf b3d1 febd
000000c0: 4006 48be 347f 743f 3430 4d3f 211c 0dc0
000000d0: 1319 6bbe 409a d4bf 2c9c 84be d38b 593e
000000e0: 2ab8 ab3e 00e4 693e fda0 e5bf 660d 083f
000000f0: 4ce8 93be 9930 0e3f fc9d b3bc 6fe9 dcbf
00000100: 8ac7 10c0 7775 2b3e e30a a93e 5c14 d2be
00000110: 3211 46be 03f7 dabf de8c 233f 6dd9 2cbf
00000120: 1904 7dbd 4afd 6dbf fde4 1bc0 19b4 4b3f
00000130: 71e1 67be 1992 abbf fea4 c83e fcae d83e
00000140: e85a 213f 6bf6 e5bf c45d a2bd 3328 d1bf
00000150: 4a66 003e 1db1 ae3f abaf 11c0 1d3c 173f
00000160: 1894 813f 3606 50bf c387 a8bf 5625 753f
00000170: e152 02be cf09 8ebf fe47 d4bf 35ef 52bf
00000180: 2491 41bf 90f0 c9be 2d12 6cbe e993 77bd
00000190: 71c3 b1be 2983 093f 8fa2 993e 0a6a 9cbe

l3.bias f4 [13]
0.018245908 0.056738637 -0.00820012 -0.0240622 -0.503922 -0.5085248 0.30542862 -0.039825894
0.13224508 -0.15673791 -0.1769344 0.27359566 -0.24952629
00000000: 7178 953c c666 683d cc59 06bc 171e c5bc
00000010: 0801 01bf ae2e 02bf 2461 9c3e 7a20 23bd
00000020: 416b 073e e77f 20be 4b2e 35be bb14 8c3e
00000030: d283 7fbe
